data.pth (torch, 5674 bytes, 6 tensors)

l1.weight f4 [8, 60]
0.51249725 0.4506827 -0.6696605 0.61913097 -0.30277306 -0.24476267 0.17783375 0.25920466
0.4908624 0.024167463 -0.15011884 -0.44328302 -0.37783423 -0.3084467 -0.05919303 -0.33988678
0.66978526 -0.24445753 -0.45912912 -0.07227589 0.00040496505 -0.2819275 0.49815026 -0.46337092
0.471565 -0.38744792 -0.29809198 0.46535638 0.4884894 -0.32634723 0.8397683 0.6997939
-0.08116895 -0.12691043 0.40683 -0.6874919 -0.4021437 0.47661412 0.7378828 -0.16688946
0.14484763 -0.23062328 0.7003791 -0.1871742 0.85657257 -0.041561563 0.18038599 0.644361
-0.5185477 0.9801413 0.533213 0.6112286 0.7834417 0.59038454 0.8475017 -0.42192325
0.24403773 0.7319118 -0.23575965 0.27504277 0.56378293 -0.07095593 -0.2876282 -0.07185582
0.60942274 0.58131903 -0.11034363 -0.25699964 -0.433596 -0.66709185 -0.17158385 -0.5222868
-0.70966923 -0.44545522 0.79330695 0.7896256 -0.07633515 0.7305683 0.76126087 0.66396856
-0.7593491 -0.068342716 -0.30929938 0.73325396 0.23480245 0.918037 0.94717145 1.0251892
0.31012437 0.52141696 -0.3141026 -0.37401682 -0.26819018 0.7329032 0.48161626 -0.42045084
0.77162755 0.4232555 -0.29146084 -0.6422194 -0.23713486 -0.2037726 -0.1528849 -0.40378228
-0.39445952 0.656728 -0.028803714 -0.099105485 0.5166388 0.60199773 0.17561379 0.24835722
-0.23434533 0.30390742 -0.49107698 0.91981316 0.06922489 -0.26292637 -0.25050953 0.20148404
-0.12474653 -0.1222641 -0.0140606165 -0.05088792 -0.09975224 -0.03733138 0.014558092 0.081501156
-0.020465024 0.020592362 0.122875914 0.0979792 0.035161376 0.09058991 -0.08098455 0.022740187
-0.06158065 -0.0067734914 -0.08871579 0.011129156 0.06292173 -0.025632307 -0.10575975 -0.06625806
0.0599228 0.06825791 -0.00070881844 0.08157895 -0.1131658 -0.051381655 0.05118321 0.09923054
-0.033665933 0.06870421 0.033438116 -0.01585292 0.039686754 0.073125735 0.04762134 0.10084513
-0.042833544 0.04332918 0.06925644 -0.039718315 0.07867114 -0.11145902 -0.11401485 -0.08447061
-0.039839778 -0.024667501 -0.04177799 -0.07515402 0.054601163 0.10530037 0.07860559 -0.07412555
-0.028694488 0.049247384 0.059789166 -0.081168085 0.66572255 -0.04274189 -0.3502703 0.16284716
0.39307088 -0.04716945 -0.038062006 -0.35589805 -0.2623079 -0.6379966 -0.26687977 -0.44722778
-0.26638526 -0.33897543 0.3527291 0.2261758 0.34366053 0.178533 0.3878527 0.33844718
-0.6379915 -0.15642653 -0.05889585 0.7074882 0.5922509 0.6182043 0.62157416 0.96599746
0.19153008 0.44756117 0.47095588 0.67386407 -0.37761304 0.30022225 0.48265278 -0.45887008
0.44652098 0.64582473 0.6102783 -0.46740833 -0.28806442 -0.2204666 0.31642962 -0.40324274
0.44317573 0.19428754 0.028543225 0.7423583 -0.05309585 1.1223658 0.5413481 0.7421259
0.8149413 0.58190304 0.7995599 0.30363324 -0.15471986 0.61777323 -0.13344759 0.14278366
0.5045573 0.019225644 -0.35642326 -0.067180574 0.67194766 0.50301415 -0.004874573 -0.3722865
-0.07808825 -0.74882406 0.18671077 -0.3245433 -0.46344504 -0.35779008 0.5293652 0.26719597
00000000: 0533 033f e2bf e63e df6e 2bbf 5e7f 1e3f
00000010: 1205 9bbe 11a3 7abe 0d1a 363e 79b6 843e
00000020: 5152 fb3e d8fa c53c c1b8 19be fef5 e2be
00000030: 7d73 c1be baec 9dbe 6474 72bd a405 aebe
00000040: 0c77 2b3f 1353 7abe f912 ebbe 6205 94bd
00000050: 7d51 d439 cd58 90be 8d0d ff3e f43e edbe
00000060: f870 f13e 935f c6be 839f 98be 3143 ee3e
00000070: 481b fa3e fc16 a7be 0efb 563f b125 333f
00000080: e83b a6bd cff4 01be 064c d03e 78ff 2fbf
00000090: c7e5 cdbe c406 f43e e3e5 3c3f 12e5 2abe
000000a0: f052 143e 8228 6cbe 0b4c 333f 98aa 3fbe
000000b0: 5748 5b3f 753c 2abd 1bb7 383e d8f4 243f
000000c0: 8bbf 04bf 8aea 7a3f a680 083f 7a79 1c3f
000000d0: a38f 483f 7123 173f dff5 583f 5306 d8be
000000e0: 07e5 793e 925e 3b3f fa6a 71be 68d2 8c3e
000000f0: 1454 103f 5851 91bd 0144 93be 2529 93bd
00000100: 2103 1c3f 53d1 143f d7fb e1bd 7595 83be
00000110: 4b00 debe 88c6 2abf adb3 2fbe 96b4 05bf
00000120: e2ac 35bf b512 e4be 2a16 4b3f e724 4a3f
00000130: 9a55 9cbd 8606 3b3f fee1 423f d8f9 293f
00000140: b464 42bf 44f7 8bbd 7d5c 9ebe 88b6 3b3f
00000150: 0e70 703e 7904 6b3f d479 723f 6639 833f
00000160: 9fc8 9e3e 957b 053f 0ed2 a0be 227f bfbe
00000170: 3950 89be 8b9f 3b3f 6896 f63e 5545 d7be
00000180: 6289 453f f2b4 d83e 5b3a 95be 7e68 24bf
00000190: 7bd3 72be c4a9 50be dc8d 1cbe 8dbc cebe
000001a0: 99f6 c9be 541f 283f c4f5 ebbc d1f7 cabd
000001b0: 7142 043f 861c 1a3f 1ad4 333e 5b51 7e3e
000001c0: 39f8 6fbe c199 9b3e 716e fbbe e078 6b3f
000001d0: c7c5 8d3d 499e 86be c942 80be d551 4e3e
000001e0: 1c7b ffbd 9a65 fabd 805e 66bc da6f 50bd
000001f0: e74a ccbd cae8 18bd 1085 6e3c 14ea a63d
00000200: 44a6 a7bc 50b1 a83c 5ea6 fb3d 52a9 c83d
00000210: 6005 103d 3487 b93d 3adb a5bd a149 ba3c
00000220: fe3b 7cbd 2af4 ddbb a0b0 b5bd 1057 363c
00000230: 1cdd 803d d8fa d1bc 9198 d8bd 4eb2 87bd
00000240: 9c71 753d ceca 8b3d 00d0 39ba dd12 a73d
00000250: 79c3 e7bd 9275 52bd 7ca5 513d 6239 cb3d
00000260: 4ae5 09bd cbb4 8c3d 68f6 083d fcdd 81bc
00000270: 948e 223d f2c2 953d 980e 433d e487 ce3d
00000280: 3a72 2fbd f079 313d 52d6 8d3d acaf 22bd
00000290: 561e a13d a044 e4bd 9e80 e9bd edfe acbd
000002a0: 092f 23bd 8013 cabc 661f 2bbd 5aea 99bd
000002b0: 78a5 5f3d b8a7 d73d f8fb a03d 23cf 97bd
000002c0: b410 ebbc a0b7 493d 7ce5 743d 743b a6bd
000002d0: cb6c 2a3f 1f12 2fbd a156 b3be 68c1 263e
000002e0: 9640 c93e c134 41bd e8e6 1bbd 4538 b6be
000002f0: 394d 86be bf53 23bf 77a4 88be 0afb e4be
00000300: a663 88be 308e adbe e998 b43e a19a 673e
00000310: 46f4 af3e 5bd1 363e a194 c63e f348 ad3e
00000320: 6953 23bf 472e 20be c63c 71bd f21d 353f
00000330: c19d 173f a342 1e3f 7c1f 1f3f 9c4b 773f
00000340: 7620 443e bd26 e53e 2121 f13e 5b82 2c3f
00000350: 7f56 c1be bbb6 993e 441e f73e 05f1 eabe
00000360: 669e e43e c554 253f 333b 1c3f 2550 efbe
00000370: 2e7d 93be ffc1 61be 1003 a23e d575 cebe
00000380: eee7 e23e 50f3 463e 7bd3 e93c 320b 3e3f
00000390: 097b 59bd afa9 8f3f ca95 0a3f f7fb 3d3f
000003a0: fe9f 503f 99f7 143f f5af 4c3f d175 9b3e
000003b0: e26e 1ebe 6326 1e3f 7ca6 08be e135 123e
000003c0: ab2a 013f 197f 9d3c 1c7d b6be f895 89bd
000003d0: c304 2c3f 89c5 003f e2ba 9fbb 569c bebe
000003e0: bbec 9fbd efb2 3fbf 1c31 3f3e 8a2a a6be
000003f0: ab48 edbe 4330 b7be 7a84 073f e9cd 883e

l1.bias f4 [8]
0.46477568 0.7604147 -0.15129425 0.63789004 0.88432676 0.79611295 0.65981436 0.6022574
00000000: 14f7 ed3e 8aaa 423f e1ec 1abe c34c 233f
00000010: 3d63 623f 0fce 4b3f 98e9 283f 8a2d 1a3f

l2.weight f4 [8, 8]
0.59823084 1.2914957 0.18864767 1.417692 1.0058632 1.4538516 -0.4176107 -0.20610635
-0.99664855 0.47942376 0.07120761 -0.01848016 -0.057721987 -0.52414256 0.46953458 0.26394305
1.0873715 -0.5232637 -0.17797619 0.4963256 0.09769511 -0.5084272 1.2168225 -0.049852997
-0.13176891 0.08391088 0.21488956 -0.3042916 -0.13241145 0.07199547 -0.29851404 -0.12905285
-0.65091795 0.6846524 0.047454685 0.59399915 0.06396576 -1.1279317 0.816153 -1.13661
0.49868304 -0.47634253 0.3205574 -1.0217873 -0.3365144 0.920228 -0.24889815 1.3862784
-0.9955057 1.090951 -0.08732843 0.0008846654 0.85363245 0.09161056 1.1966268 -0.9208561
0.5227902 -0.3603942 0.059931815 0.80306333 0.8567905 -0.95834893 0.3640949 -1.0520152
00000000: a825 193f bb4f a53f db2c 413e ee76 b53f
00000010: 20c0 803f cf17 ba3f 12d1 d5be 8b0d 53be
00000020: 5c24 7fbf 0877 f53e 4cd5 913d b463 97bc
00000030: e46d 6cbd 352e 06bf d666 f03e 8b23 873e
00000040: fd2e 8b3f 9cf4 05bf 643f 36be 641e fe3e
00000050: 6014 c83d 4928 02bf d7c0 9b3f a832 4cbd
00000060: 6eee 06be 78d9 ab3d 020c 5c3e 1ccc 9bbe
00000070: de96 07be 5c72 933d d5d6 98be 6e26 04be
00000080: 8fa2 26bf 6145 2f3f d85f 423d 5410 183f
00000090: 7b00 833d 1160 90bf 67ef 503f 707c 91bf
000000a0: 6253 ff3e 2be3 f3be 1920 a43e edc9 82bf
000000b0: 9e4b acbe 1094 6b3f 28df 7ebe 9271 b13f
000000c0: 76d9 7ebf 48a4 8b3f 3fd9 b2bd e4e8 673a
000000d0: a887 5a3f 519e bb3d 112b 993f 3abd 6bbf
000000e0: 94d5 053f 9785 b8be 107b 753d 8f95 4d3f
000000f0: 9f56 5b3f 5b56 75bf a66a ba3e 6fa8 86bf

l2.bias f4 [8]
0.050672792 0.028206706 0.22474337 -0.26494136 -0.27834833 0.9589728 0.4960447 0.061123226
00000000: 468e 4f3d c011 e73c 2023 663e 65a6 87be
00000010: ac83 8ebe 3e7f 753f 92f9 fd3e 595c 7a3d

l3.weight f4 [8, 8]
-0.23772058 0.91361284 -1.2315435 -0.04046178 0.8167598 -0.60147136 0.33684674 -0.37748107
0.1310513 -0.25359014 -1.9046916 -0.03840536 -0.5395984 1.1277456 -0.8216951 -0.8585928
0.55788434 -0.60722667 -1.4250565 -0.20517157 -1.4729822 -0.97715324 0.51615226 -0.30442867
-0.037644308 -0.28852624 0.2745512 0.24531356 -1.4600427 -1.2205266 -1.4220847 0.86966455
-1.7025816 0.8405842 0.20831035 -0.2522439 0.20723382 -1.1303394 0.8162619 -0.10951786
0.7199197 -0.5212725 -0.14064813 -0.0063405633 -0.65384305 -0.37767506 -1.4494319 -1.4388669
-1.2493585 -0.78255665 0.6737692 0.13834554 -0.5674537 0.06941329 -0.76904595 -1.0365152
-0.08163227 -1.2888232 -0.07422507 -0.13767579 -0.060373757 -0.87067825 0.2265118 0.25357246
00000000: 066d 73be 88e2 693f 38a3 9dbf 40bb 25bd
00000010: 2c17 513f 07fa 19bf 2d77 ac3e 3345 c1be
00000020: 5032 063e 91d6 81be efcc f3bf f04e 1dbd
00000030: 1f23 0abf f859 903f 9c5a 52bf bdcc 5bbf
00000040: 82d1 0e3f 3573 1bbf 4068 b6bf 7f18 52be
00000050: ae8a bcbf b726 7abf 8e22 043f 13de 9bbe
00000060: eb30 1abd b6b9 93be fa91 8c3e 7a33 7b3e
00000070: aee2 babf 373a 9cbf df06 b6bf 56a2 5e3f
00000080: 32ee d9bf 8730 573f 4f4f 553e 1d26 81be
00000090: 1a35 543e f6ae 90bf 8af6 503f e64a e0bd
000000a0: a84c 383f 1d72 05bf 1006 10be 80c4 cfbb
000000b0: 4262 27bf a05e c1be fc86 b9bf ca2c b8bf
000000c0: fbea 9fbf a255 48bf 237c 2c3f 74aa 0d3e
000000d0: a544 11bf 8e28 8e3d 32e0 44bf 88ac 84bf
000000e0: d22e a7bd 29f8 a4bf 5003 98bd e2fa 0cbe
000000f0: 794a 77bd c5e4 5ebf b6f2 673e 40d4 813e

l3.bias f4 [8]
-0.67339754 0.57909566 0.17930983 -0.12809658 -0.21426724 0.075416364 0.3086085 -0.3938786
00000000: c863 2cbf 9d3f 143f ff9c 373e c02b 03be
00000010: df68 5bbe e573 9a3d ef01 9e3e 75aa c9be
